(9432, 224, 224, 3)
(9432, 224, 224, 3)
(?, 224, 224, 64)
(?, 112, 112, 128)
(?, 56, 56, 256)
(?, 28, 28, 512)
__________________________________________________________________________________________________
Layer (type)                    Output Shape         Param #     Connected to                     
==================================================================================================
input_1 (InputLayer)            (None, 224, 224, 3)  0                                            
__________________________________________________________________________________________________
block1_conv1 (Conv2D)           (None, 224, 224, 64) 1792        input_1[0][0]                    
__________________________________________________________________________________________________
block1_conv2 (Conv2D)           (None, 224, 224, 64) 36928       block1_conv1[0][0]               
__________________________________________________________________________________________________
block1_pool (MaxPooling2D)      (None, 112, 112, 64) 0           block1_conv2[0][0]               
__________________________________________________________________________________________________
block2_conv1 (Conv2D)           (None, 112, 112, 128 73856       block1_pool[0][0]                
__________________________________________________________________________________________________
block2_conv2 (Conv2D)           (None, 112, 112, 128 147584      block2_conv1[0][0]               
__________________________________________________________________________________________________
block2_pool (MaxPooling2D)      (None, 56, 56, 128)  0           block2_conv2[0][0]               
__________________________________________________________________________________________________
block3_conv1 (Conv2D)           (None, 56, 56, 256)  295168      block2_pool[0][0]                
__________________________________________________________________________________________________
block3_conv2 (Conv2D)           (None, 56, 56, 256)  590080      block3_conv1[0][0]               
__________________________________________________________________________________________________
block3_conv3 (Conv2D)           (None, 56, 56, 256)  590080      block3_conv2[0][0]               
__________________________________________________________________________________________________
block3_pool (MaxPooling2D)      (None, 28, 28, 256)  0           block3_conv3[0][0]               
__________________________________________________________________________________________________
block4_conv1 (Conv2D)           (None, 28, 28, 512)  1180160     block3_pool[0][0]                
__________________________________________________________________________________________________
block4_conv2 (Conv2D)           (None, 28, 28, 512)  2359808     block4_conv1[0][0]               
__________________________________________________________________________________________________
block4_conv3 (Conv2D)           (None, 28, 28, 512)  2359808     block4_conv2[0][0]               
__________________________________________________________________________________________________
block4_pool (MaxPooling2D)      (None, 14, 14, 512)  0           block4_conv3[0][0]               
__________________________________________________________________________________________________
block5_conv1 (Conv2D)           (None, 14, 14, 512)  2359808     block4_pool[0][0]                
__________________________________________________________________________________________________
block5_conv2 (Conv2D)           (None, 14, 14, 512)  2359808     block5_conv1[0][0]               
__________________________________________________________________________________________________
block5_conv3 (Conv2D)           (None, 14, 14, 512)  2359808     block5_conv2[0][0]               
__________________________________________________________________________________________________
conv2d_transpose_1 (Conv2DTrans (None, 28, 28, 512)  2359808     block5_conv3[0][0]               
__________________________________________________________________________________________________
batch_normalization_1 (BatchNor (None, 28, 28, 512)  2048        conv2d_transpose_1[0][0]         
__________________________________________________________________________________________________
concatenate_1 (Concatenate)     (None, 28, 28, 1024) 0           batch_normalization_1[0][0]      
                                                                 block4_conv3[0][0]               
__________________________________________________________________________________________________
conv2d_1 (Conv2D)               (None, 28, 28, 512)  524800      concatenate_1[0][0]              
__________________________________________________________________________________________________
conv2d_transpose_2 (Conv2DTrans (None, 56, 56, 256)  1179904     conv2d_1[0][0]                   
__________________________________________________________________________________________________
batch_normalization_2 (BatchNor (None, 56, 56, 256)  1024        conv2d_transpose_2[0][0]         
__________________________________________________________________________________________________
concatenate_2 (Concatenate)     (None, 56, 56, 512)  0           batch_normalization_2[0][0]      
                                                                 block3_conv3[0][0]               
__________________________________________________________________________________________________
conv2d_2 (Conv2D)               (None, 56, 56, 256)  131328      concatenate_2[0][0]              
__________________________________________________________________________________________________
conv2d_transpose_3 (Conv2DTrans (None, 112, 112, 128 295040      conv2d_2[0][0]                   
__________________________________________________________________________________________________
batch_normalization_3 (BatchNor (None, 112, 112, 128 512         conv2d_transpose_3[0][0]         
__________________________________________________________________________________________________
concatenate_3 (Concatenate)     (None, 112, 112, 256 0           batch_normalization_3[0][0]      
                                                                 block2_conv2[0][0]               
__________________________________________________________________________________________________
conv2d_3 (Conv2D)               (None, 112, 112, 128 32896       concatenate_3[0][0]              
__________________________________________________________________________________________________
conv2d_transpose_4 (Conv2DTrans (None, 224, 224, 64) 73792       conv2d_3[0][0]                   
__________________________________________________________________________________________________
batch_normalization_4 (BatchNor (None, 224, 224, 64) 256         conv2d_transpose_4[0][0]         
__________________________________________________________________________________________________
concatenate_4 (Concatenate)     (None, 224, 224, 128 0           batch_normalization_4[0][0]      
                                                                 block1_conv2[0][0]               
__________________________________________________________________________________________________
conv2d_4 (Conv2D)               (None, 224, 224, 64) 8256        concatenate_4[0][0]              
__________________________________________________________________________________________________
conv2d_5 (Conv2D)               (None, 224, 224, 3)  195         conv2d_4[0][0]                   
__________________________________________________________________________________________________
concatenate_5 (Concatenate)     (None, 224, 224, 6)  0           conv2d_5[0][0]                   
                                                                 input_1[0][0]                    
__________________________________________________________________________________________________
conv2d_6 (Conv2D)               (None, 224, 224, 3)  21          concatenate_5[0][0]              
==================================================================================================
Total params: 19,324,568
Trainable params: 6,967,768
Non-trainable params: 12,356,800
__________________________________________________________________________________________________
Train on 7545 samples, validate on 1887 samples
Epoch 1/20

  32/7545 [..............................] - ETA: 37:45 - loss: 7.5618 - psnr: -5.7760
…
